controllers/train_position/models/model_500_critic.pkl (torch, 2847 bytes, 5 tensors)

fc1.weight f4 [10, 3]
00000000: 32e7 f7be 4932 3d3e 9fa5 123e f587 b2bd
00000010: 9bd4 f4be ad89 4b3f 5404 fa3c 2a84 88be
00000020: 11ec 35be b815 84be 211d 13bf 2792 d8bd
00000030: 2df5 0dbf 0899 efbe 655f d4be 7713 0fbd
00000040: a4a9 ffbe 6bbf 613e 2922 11bd bf0c 9a3d
00000050: 7692 2abf 944d 433e f944 313d 1793 013d
00000060: 494f d33e a6b6 edbe 83b9 e63e 9b28 ccbe
00000070: 9b9d d4be 60b6 53be
-0.48418576 0.18476214 0.14320992 -0.08717338 -0.47818455 0.7950695 0.030519642 -0.26663333
-0.17765833 -0.2579782 -0.5746632 -0.10574751 -0.55452234 -0.4679644 -0.4147903 -0.034930672
-0.49934113 0.22045676 -0.03543297 0.075219624 -0.6662973 0.19072562 0.043278668 0.031634416
0.41271427 -0.46428412 0.4506341 -0.3987473 -0.41526493 -0.2067504

fc1.bias f4 [10]
00000000: 2bf0 ac3f 78bb c63f 0240 a9be eeab dfbe
00000010: 08d4 fabc 0ba8 b53f 6376 6a3f c815 b23f
00000020: 0188 07bf 195b 90be
1.3510793 1.5525961 -0.33056647 -0.4368586 -0.030618683 1.4191908 0.91586894 1.3912897
-0.529419 -0.28194502

fc2.weight f4 [10, 10]
00000000: ce8b 683f c00d 9b3f abb4 98be 4993 c5bc
00000010: 11da 323e 990d 8b3f 1590 bb3e c029 013f
00000020: dba4 9fbe 7f6e 803d 3ae2 6f3d 972a 19bd
00000030: a033 b13d c236 ddbd 24b7 7fbd 0141 97bd
00000040: b4d9 58be 7b96 3ebd 7155 9ebd 8d09 bfbd
00000050: c08c 193e ee40 673e f069 eb3d b1cd 623e
00000060: 8705 9cbe ff4b 72bd d09e 96be e817 433d
00000070: 0f1c 033d c306 28bd 61ca a83f edf8 853f
00000080: 9ede 5abe ea48 b83d f905 0e3b ed71 543f
00000090: 8667 893e ea67 c83e 79ab 87bd ec2f a13e
000000a0: b72d 1f3f 7709 b53f b437 493e 2302 aebc
000000b0: 2fb8 bb3c fe2f a43f 3c4a 793e 6f2a b73e
000000c0: e267 86be 17de e1bd ff6d 883f 4580 983f
000000d0: 4810 2a3e 4bd1 acbc cd11 903d e7d4 883f
000000e0: 9c37 2dbe 38e5 17bc a056 213d abb6 223e
000000f0: 991d 4d3f 06e1 9d3f 1f7e ecbd 947e d6bd
00000100: daad bfbd fb56 523f 095b d8bb 1297 9a3e
00000110: 5398 9ebc e7a4 0cbe eb07 8a3f e95c 683f
00000120: 8c5f 0839 c009 923e 7ce3 39be 2eea 893f
00000130: a83b 913d 354b ad3e cadb 81be bcd7 4f3d
00000140: 37aa 82be 503c dabe 9009 9a3d 6e3d 653e
00000150: 6407 873e 656f 80be c861 bb3e 16b8 a33e
00000160: 99c8 73be e247 043e 5c72 c4be 887a e9bd
00000170: 3f62 07bc 5c37 db3b 64d8 723e ef2c 053e
00000180: afc3 0fbd c6fe dfbd 505d 64be 9a08 7c3e
0.90838325 1.2113571 -0.2982534 -0.024118083 0.17465998 1.0863525 0.36633363 0.5045433
-0.31180462 0.062710755 0.058565356 -0.037394132 0.08652425 -0.1080146 -0.062430516 -0.073854454
-0.21176797 -0.046530228 -0.077311404 -0.093279935 0.14995098 0.22583362 0.11494815 0.22148778
-0.30472967 -0.059154507 -0.2941804 0.04763022 0.03200918 -0.041022073 1.3186761 1.0466591
-0.21373984 0.08998282 0.002167104 0.82986337 0.26836795 0.3914178 -0.06624503 0.31481874
0.6217913 1.4143513 0.19650155 -0.021241253 0.022914974 1.2827146 0.24344724 0.35774562
-0.2625113 -0.110286884 1.0658568 1.1914145 0.16607773 -0.021095892 0.07034645 1.0689973
-0.16915745 -0.009270959 0.039389253 0.15889995 0.8012329 1.2334297 -0.11547493 -0.104733616
-0.093593314 0.8216397 -0.006602649 0.30193383 -0.019359743 -0.1373478 1.0783666 0.9076677
0.00013005565 0.28523064 -0.18153185 1.0774591 0.07091457 0.3384644 -0.25362998 0.05074285
-0.2552049 -0.4262414 0.07521355 0.22386715 0.26372826 -0.25084987 0.3659804 0.31976384
-0.2380699 0.12918046 -0.383685 -0.11400324 -0.00826317 0.006689949 0.23715359 0.13005422
-0.035098728 -0.10937266 -0.22301221 0.24612656

fc2.bias f4 [10]
00000000: 362e 333f 5bb2 713d eeb6 8fbe b782 3c3f
00000010: d468 4f3f bf51 243f 6b1a 763f fb38 243f
00000020: 8336 94be c245 203e
0.6999239 0.059007984 -0.28069252 0.73636955 0.8101933 0.64187235 0.9613406 0.64149445
-0.2894784 0.1565161

state_value.weight f4 [1, 10]
00000000: 16e4 2cbf 50e5 bd3d de8b d73d 96c2 2fbf
00000010: ad64 7abf 8b20 14bf 53ef 77bf d002 23bf
00000020: bf7b b33e c61d 773d
-0.6753553 0.092722535 0.105247244 -0.6865629 -0.9780987 -0.57862157 -0.96849555 -0.63676167
0.35055348 0.06033113
