controllers/train_position/models/model_200_actor.pkl (torch, 2903 bytes, 6 tensors)

fc1.weight f4 [10, 3]
00000000: 1fe7 08bf d365 0bbf ad6b eebe 9a46 b2bd
00000010: 9656 023e ed33 a3be 1bfe 943e 134c cabe
00000020: 8384 0abe c6c6 3e3e 5ccd 143f 721a 123f
00000030: c6d8 303d e81e 8bba 5151 ce3e 4b0b 513e
00000040: 54fc cbbe ec06 053f 2598 74bd eaf3 7fbe
00000050: 974c e8be 438c 0ebf d051 00bf d796 6dbe
00000060: c912 e6be fd8f cebe 42f8 92bd 025c b6be
00000070: ea1a 853e 9dfb ea3e
-0.5347766 -0.54452246 -0.46566525 -0.087048724 0.12728342 -0.31875554 0.29100117 -0.39511165
-0.13527112 0.18630514 0.58125854 0.570716 0.04317548 -0.0010614069 0.40296414 0.20414464
-0.3984095 0.51963687 -0.05971541 -0.2499539 -0.45370933 -0.5568277 -0.50124836 -0.23202072
-0.44936207 -0.4034423 -0.07176258 -0.3561707 0.25997096 0.4589509

fc1.bias f4 [10]
00000000: d36a c7be 3e3a 13bf 2295 f8be 115e f2be
00000010: 85c3 98be b19c fd3e 3ff5 ac3e 54d1 d93e
00000020: f5ac 583d 8f15 0abf
-0.38948688 -0.57510746 -0.4855128 -0.47337392 -0.2983667 0.4953361 0.33780858 0.42542517
0.05289932 -0.53939146

fc2.weight f4 [10, 10]
00000000: 499a 673e 0d3b 573c 5ba6 d8bd 9941 65bd
00000010: c57b 18bd e135 6ebd 8cbf 20be 1710 c8bd
00000020: d95d fbbd 1f7a 393e d279 fd3d 23df fb3d
00000030: 8059 9f3d d71d 8cbe 95f3 1cbe aa68 8bbe
00000040: 538a 853e 3585 35be d39e 9b3e bdd8 a1be
00000050: fcad fbbc c46a 493e 1191 3a3e ffcc 013e
00000060: 7620 2f3d 8b12 5abe 56b8 abbc 499e 71be
00000070: d6ce 56be 4ca9 1abd f5f6 3dbe 18eb 98be
00000080: 842d a43d 528e 79be 0755 8f3e dc64 9ebe
00000090: 6389 88bd 1f05 8abe 4432 523d 8345 943e
000000a0: a194 68bb aad5 4d3b da87 013e 90be 3abd
000000b0: 4da2 b43d f7c7 2ebe 53ab 643e a13e 883e
000000c0: 16d7 d33c bea8 b03d d152 45bd 0fe3 af3d
000000d0: 9568 e33d 595e eabd 9a9d 813d b01d 2ebd
000000e0: 8b98 8b3d 0ee2 73be e71d 78be afb1 353e
000000f0: 8df7 8b3e 4fd4 bbbd f142 debc 6550 4fbe
00000100: d8f9 d23d 2278 80be e8d0 323e 82ab 643e
00000110: c1ba 04be c2cf 323e 7e07 9bbe ac1a 263e
00000120: 5c94 ac3d df48 5f3e ca9f fa3d a1a2 42be
00000130: 0cae 063e d85f 95bb 4764 403e 4b08 06be
00000140: fc4c 133e b0a7 7b3e fe60 49bd d912 a83e
00000150: 2c01 573e 8d12 08be 8e2d eb3d e0fe 623e
00000160: adf6 463e a013 a73d 8c9a 953e ff07 7abe
00000170: 6192 4f3e 5cc7 0d3c 7c40 d0bd 646d 47be
00000180: 985a ba3d 256c 153e d363 4dbb 0161 94be
0.22617449 0.013136637 -0.10578605 -0.055970762 -0.03722741 -0.05815685 -0.1569807 -0.09768694
-0.122737594 0.18112992 0.12376751 0.12298419 0.07780743 -0.27366516 -0.15327294 -0.2722829
0.26082096 -0.17726596 0.3039461 -0.3161067 -0.03072261 0.19669634 0.18219401 0.12675856
0.042755567 -0.21296136 -0.020961922 -0.23595537 -0.20977339 -0.03775911 -0.18551238 -0.29866862
0.08016494 -0.24370697 0.27994558 -0.30936325 -0.066668294 -0.26957032 0.05131747 0.28959283
-0.003548898 0.0031407871 0.1264948 -0.04559189 0.08820019 -0.17068468 0.2233098 0.26610282
0.025859397 0.08625935 -0.048174683 0.0858823 0.11103932 -0.11443777 0.06328888 -0.04250878
0.06816205 -0.23816702 -0.24230157 0.17743562 0.27337304 -0.09171354 -0.02713153 -0.20245512
0.1030156 -0.25091654 0.17462504 0.2233105 -0.12961866 0.17462066 -0.30279154 0.16221112
0.08426735 0.21805142 0.122375086 -0.1900735 0.13152331 -0.0045585446 0.18788253 -0.13089101
0.14384836 0.24575686 -0.049164765 0.3282688 0.20996541 -0.13288327 0.11483298 0.2216754
0.19430037 0.0815804 0.29219472 -0.24417113 0.20270683 0.008653488 -0.101685494 -0.19475323
0.09099311 0.14592035 -0.0031340017 -0.28980258

fc2.bias f4 [10]
00000000: 5952 d33d ca18 99be c719 6e3e 79f5 1cbe
00000010: 04b9 01be a4e7 7fbe 8d50 5e3e e080 ebbd
00000020: a59b 76be 691e 35be
0.10318441 -0.29901725 0.23252021 -0.15328015 -0.12668234 -0.24990708 0.21710415 -0.1149919
-0.24082811 -0.17687382

action_head.weight f4 [4, 10]
00000000: 3d99 a3bd 3430 9ebe 734d 813d a39a 84be
00000010: 7aad 80be 91a2 153c be1d 13be c002 7b3d
00000020: 441d 873e eb3a 68be c180 18be 617f 663e
00000030: 25f2 aa3d 4452 bcbd 9e88 5cbd 12b3 9e3e
00000040: 7829 1b3e b243 8abe b0ce ebbe f0a4 4dbe
00000050: bd45 20be 8f31 ac3d ec70 2bbe 408a 883e
00000060: c675 76be 1d5c 833e c043 27bd 0b5f 0d3e
00000070: f595 83be efe1 8c3d b40d f33d fba9 543e
00000080: 7c94 903e 5f6a 393e 0aa2 c3bd 1dd5 1dbe
00000090: b12b b53d 5eda b23e 1dd5 12be 09af 623e
-0.07988212 -0.3089615 0.063136004 -0.25899228 -0.25132352 0.009132997 -0.14366814 0.06128192
0.26389515 -0.22678725 -0.14892866 0.22509529 0.08346967 -0.091953784 -0.053841226 0.30995995
0.15152538 -0.27004772 -0.46056128 -0.2008245 -0.15651603 0.0840789 -0.16742295 0.26667976
-0.24068365 0.25656214 -0.040836096 0.13805787 -0.25700346 0.06879031 0.11867848 0.20767967
0.28238285 0.18106984 -0.09552391 -0.15413328 0.08846224 0.34932226 -0.14339109 0.22137083

action_head.bias f4 [4]
00000000: 5780 ffbd 7644 c8be ca36 a0be f553 9b3c
-0.12475651 -0.39114732 -0.312918 0.018960932
