controllers/train_position/models/model_600_actor.pkl (torch, 2903 bytes, 6 tensors)

fc1.weight f4 [10, 3]
000000 1f e7 08 bf d3 65 0b bf ad 6b ee be 9a 46 b2 bd
       -0.5347766 -0.54452246 -0.46566525 -0.087048724
000010 96 56 02 3e ed 33 a3 be 1b fe 94 3e 13 4c ca be
       0.12728342 -0.31875554 0.29100117 -0.39511165
000020 83 84 0a be 64 c0 51 3e c7 c6 17 3f ab 28 16 3f
       -0.13527112 0.20483547 0.59287685 0.58655804
000030 49 68 67 3e 9b 16 46 3e cf 4e 15 3f 4f fd 50 3e
       0.22598375 0.19344561 0.5832338 0.2040913
000040 e7 03 cc be 87 03 05 3f 25 98 74 bd ea f3 7f be
       -0.39846727 0.5195851 -0.05971541 -0.2499539
000050 97 4c e8 be 43 8c 0e bf d0 51 00 bf d7 96 6d be
       -0.45370933 -0.5568277 -0.50124836 -0.23202072
000060 c9 12 e6 be fd 8f ce be 42 f8 92 bd 02 5c b6 be
       -0.44936207 -0.4034423 -0.07176258 -0.3561707
000070 ea 1a 85 3e 9d fb ea 3e
       0.25997096 0.4589509

fc1.bias f4 [10]
000000 d3 6a c7 be 3e 3a 13 bf 22 95 f8 be 89 47 ef be
       -0.38948688 -0.57510746 -0.4855128 -0.46734264
000010 4d a1 26 be 2a 92 fd 3e 9e fd ac 3e b4 ab d9 3e
       -0.16272469 0.49525577 0.33787245 0.42513812
000020 a8 da 53 3d 8f 15 0a bf
       0.0517222 -0.53939146

fc2.weight f4 [10, 10]
000000 49 9a 67 3e 0d 3b 57 3c 5b a6 d8 bd 99 41 65 bd
       0.22617449 0.013136637 -0.10578605 -0.055970762
000010 c5 7b 18 bd e1 35 6e bd 8c bf 20 be 17 10 c8 bd
       -0.03722741 -0.05815685 -0.1569807 -0.09768694
000020 d9 5d fb bd 1f 7a 39 3e d2 79 fd 3d 23 df fb 3d
       -0.122737594 0.18112992 0.12376751 0.12298419
000030 80 59 9f 3d d7 1d 8c be 95 f3 1c be aa 68 8b be
       0.07780743 -0.27366516 -0.15327294 -0.2722829
000040 53 8a 85 3e 35 85 35 be d3 9e 9b 3e bd d8 a1 be
       0.26082096 -0.17726596 0.3039461 -0.3161067
000050 fc ad fb bc c4 6a 49 3e 11 91 3a 3e d6 32 98 bb
       -0.03072261 0.19669634 0.18219401 -0.004644732
000060 8c d6 c8 bd bf 0a 5a be 21 d3 a9 bc 49 89 70 be
       -0.098065466 -0.21293162 -0.020730557 -0.2348987
000070 47 a4 55 be 4c a9 1a bd f5 f6 3d be 18 eb 98 be
       -0.20863448 -0.03775911 -0.18551238 -0.29866862
000080 84 2d a4 3d 52 8e 79 be 07 55 8f 3e dc 64 9e be
       0.08016494 -0.24370697 0.27994558 -0.30936325
000090 63 89 88 bd 1f 05 8a be 44 32 52 3d 83 45 94 3e
       -0.066668294 -0.26957032 0.05131747 0.28959283
0000a0 a1 94 68 bb aa d5 4d 3b da 87 01 3e 90 be 3a bd
       -0.003548898 0.0031407871 0.1264948 -0.04559189
0000b0 4d a2 b4 3d f7 c7 2e be 53 ab 64 3e a1 3e 88 3e
       0.08820019 -0.17068468 0.2233098 0.26610282
0000c0 16 d7 d3 3c be a8 b0 3d d1 52 45 bd 0f e3 af 3d
       0.025859397 0.08625935 -0.048174683 0.0858823
0000d0 95 68 e3 3d 59 5e ea bd 9a 9d 81 3d b0 1d 2e bd
       0.11103932 -0.11443777 0.06328888 -0.04250878
0000e0 8b 98 8b 3d 0e e2 73 be e7 1d 78 be af b1 35 3e
       0.06816205 -0.23816702 -0.24230157 0.17743562
0000f0 8d f7 8b 3e 4f d4 bb bd f1 42 de bc 65 50 4f be
       0.27337304 -0.09171354 -0.02713153 -0.20245512
000100 d8 f9 d2 3d 1c 6f 80 be 9e 19 33 3e bc e0 65 3e
       0.1030156 -0.2508477 0.17490241 0.2244901
000110 ea 64 03 be c2 cf 32 3e 7e 07 9b be ac 1a 26 3e
       -0.12831464 0.17462066 -0.30279154 0.16221112
000120 5c 94 ac 3d 6a 7c 6b 3e 8b e6 d1 3e ba 98 42 be
       0.08426735 0.22996679 0.40996203 -0.19003573
000130 0c ae 06 3e d8 5f 95 bb 47 64 40 3e 4b 08 06 be
       0.13152331 -0.0045585446 0.18788253 -0.13089101
000140 fc 4c 13 3e b0 a7 7b 3e fe 60 49 bd fb 03 be 3e
       0.14384836 0.24575686 -0.049164765 0.37112412
000150 2f 2f a5 3e 1f 0e 08 be 8e 2d eb 3d e0 fe 62 3e
       0.3226256 -0.13286637 0.11483298 0.2216754
000160 ad f6 46 3e a0 13 a7 3d 8c 9a 95 3e ff 07 7a be
       0.19430037 0.0815804 0.29219472 -0.24417113
000170 61 92 4f 3e 5c c7 0d 3c 7c 40 d0 bd 64 6d 47 be
       0.20270683 0.008653488 -0.101685494 -0.19475323
000180 98 5a ba 3d 25 6c 15 3e d3 63 4d bb 01 61 94 be
       0.09099311 0.14592035 -0.0031340017 -0.28980258

fc2.bias f4 [10]
000000 59 52 d3 3d ca 18 99 be d1 d4 23 3e 79 f5 1c be
       0.10318441 -0.29901725 0.15999152 -0.15328015
000010 04 b9 01 be a4 e7 7f be 3e 66 5e 3e d8 77 e3 bd
       -0.12668234 -0.24990708 0.2171869 -0.11106843
000020 76 e9 51 be 69 1e 35 be
       -0.20499215 -0.17687382

action_head.weight f4 [4, 10]
000000 3d 99 a3 bd 34 30 9e be ee d5 ca 3d a3 9a 84 be
       -0.07988212 -0.3089615 0.09904085 -0.25899228
000010 7a ad 80 be 91 a2 15 3c 91 94 13 be fb 79 98 3d
       -0.25132352 0.009132997 -0.14412142 0.07445141
000020 45 55 85 3e eb 3a 68 be c1 80 18 be 61 7f 66 3e
       0.26041618 -0.22678725 -0.14892866 0.22509529
000030 96 13 96 3d 44 52 bc bd 9e 88 5c bd 12 b3 9e 3e
       0.073279545 -0.091953784 -0.053841226 0.30995995
000040 22 55 1a 3e 92 fd d0 be d2 09 18 bf f0 a4 4d be
       0.15071538 -0.4081846 -0.59389985 -0.2008245
000050 bd 45 20 be 8f 31 ac 3d d0 9c e7 bd 40 8a 88 3e
       -0.15651603 0.0840789 -0.113092065 0.26667976
000060 c6 75 76 be 1d 5c 83 3e c4 ab 27 bd 62 84 c8 3e
       -0.24068365 0.25656214 -0.040935293 0.391635
000070 21 a8 6a b9 ef e1 8c 3d b4 0d f3 3d fb a9 54 3e
       -0.00022378612 0.06879031 0.11867848 0.20767967
000080 09 9e 59 3e 5f 6a 39 3e 0a a2 c3 bd 1d d5 1d be
       0.21251692 0.18106984 -0.09552391 -0.15413328
000090 90 ac b7 3d 87 3f 33 3e 40 e8 98 be 09 af 62 3e
       0.089684606 0.17504703 -0.29864693 0.22137083

action_head.bias f4 [4]
000000 49 7d df bd 03 a1 e1 be 1e 93 44 be b5 e3 89 bd
       -0.10912568 -0.44068155 -0.19196746 -0.06732885
