controllers/train_position/models/model_100_critic.pkl (torch, 2847 bytes, 5 tensors)

fc1.weight f4 [10, 3]
000000 bf 12 18 be b1 36 06 3f da e3 85 3e c3 1a 39 be
       -0.14850901 0.524272 0.261504 -0.18076615
000010 3e b8 05 bf 44 09 e3 3e 54 04 fa 3c 2a 84 88 be
       -0.52234256 0.44343007 0.030519642 -0.26663333
000020 11 ec 35 be b8 15 84 be 21 1d 13 bf 27 92 d8 bd
       -0.17765833 -0.2579782 -0.5746632 -0.10574751
000030 2d f5 0d bf 08 99 ef be 65 5f d4 be 92 26 c6 3d
       -0.55452234 -0.4679644 -0.4147903 0.096753255
000040 11 fd d6 be e8 85 62 3e 98 ae 61 3e f5 96 a1 3e
       -0.4198995 0.22121394 0.22039258 0.31560484
000050 5e ee 03 bf 83 35 e1 3e 19 f9 87 3e 58 c7 2c 3e
       -0.51535594 0.4398614 0.26557234 0.16872919
000060 49 4f d3 3e a6 b6 ed be 83 b9 e6 3e 9b 28 cc be
       0.41271427 -0.46428412 0.4506341 -0.3987473
000070 9b 9d d4 be 60 b6 53 be
       -0.41526493 -0.2067504

fc1.bias f4 [10]
000000 1b fd ca 3e 0f 0d 7a 3e 02 40 a9 be ee ab df be
       0.3964623 0.24419044 -0.33056647 -0.4368586
000010 08 d4 fa bc c2 fd 5d 3e f6 55 71 3d 6c 51 fa 3e
       -0.030618683 0.21678832 0.05891987 0.48890245
000020 01 88 07 bf 19 5b 90 be
       -0.529419 -0.28194502

fc2.weight f4 [10, 10]
000000 3a f5 ed bd bc 72 d5 bc ab b4 98 be 49 93 c5 bc
       -0.11619039 -0.026055686 -0.2982534 -0.024118083
000010 11 da 32 3e b1 a3 98 3d 2c 4d 86 3e 51 e5 99 3e
       0.17465998 0.07453097 0.26230752 0.30057767
000020 db a4 9f be 7f 6e 80 3d 3b 60 ce 3d 21 04 84 3d
       -0.31180462 0.062710755 0.10076948 0.064461
000030 a0 33 b1 3d c2 36 dd bd 24 b7 7f bd 01 28 91 bc
       0.08652425 -0.1080146 -0.062430516 -0.01771927
000040 6a 78 2e be c5 07 72 bb 71 55 9e bd 8d 09 bf bd
       -0.17038122 -0.00369309 -0.077311404 -0.093279935
000050 c0 8c 19 3e ee 40 67 3e f0 69 eb 3d b1 cd 62 3e
       0.14995098 0.22583362 0.11494815 0.22148778
000060 87 05 9c be ff 4b 72 bd d0 9e 96 be e8 17 43 3d
       -0.30472967 -0.059154507 -0.2941804 0.04763022
000070 0f 1c 03 3d c3 06 28 bd bb fb 20 3e eb 29 44 be
       0.03200918 -0.041022073 0.15721028 -0.19156615
000080 9e de 5a be ea 48 b8 3d f9 05 0e 3b da 8b 68 be
       -0.21373984 0.08998282 0.002167104 -0.22709599
000090 33 e4 23 3e fe 05 33 3e 79 ab 87 bd ec 2f a1 3e
       0.1600502 0.17482755 -0.06624503 0.31481874
0000a0 2e 9e 71 be 69 0f 4a 3e b4 37 49 3e 23 02 ae bc
       -0.23595497 0.19732441 0.19650155 -0.021241253
0000b0 2f b8 bb 3c 8f 94 9e 3e 6e 27 19 3e fd 47 2f 3e
       0.022914974 0.30972716 0.14956447 0.17117305
0000c0 e2 67 86 be 17 de e1 bd c3 8a 9f 3e 3a 8e 62 3d
       -0.2625113 -0.110286884 0.31160554 0.05531142
0000d0 48 10 2a 3e 4b d1 ac bc cd 11 90 3d 7c 30 e2 3d
       0.16607773 -0.021095892 0.07034645 0.11044404
0000e0 e9 1e 5b 3e f4 18 73 3e a0 56 21 3d ab b6 22 3e
       0.2139851 0.23739988 0.039389253 0.15889995
0000f0 6e 37 7d be da 89 e4 bc 1f 7e ec bd 94 7e d6 bd
       -0.24728176 -0.027897764 -0.11547493 -0.104733616
000100 da ad bf bd a2 10 68 be cd 9a bf bd 2a fd df 3d
       -0.093593314 -0.22662595 -0.09355698 0.10936959
000110 53 98 9e bc e7 a4 0c be 81 38 7b bb 65 a7 86 be
       -0.019359743 -0.1373478 -0.003833324 -0.26299587
000120 8c 5f 08 39 c0 09 92 3e 7c e3 39 be 39 52 a5 3d
       0.00013005565 0.28523064 -0.18153185 0.08072323
000130 01 65 1f 3e bd ac 9b 3e ca db 81 be bc d7 4f 3d
       0.15565874 0.30405226 -0.25362998 0.05074285
000140 4b c0 ac bd 0e a4 8a be 90 09 9a 3d 6e 3d 65 3e
       -0.084351145 -0.2707829 0.07521355 0.22386715
000150 64 07 87 3e e7 bf 33 be 28 3d 6f 3e 5d 33 95 3e
       0.26372826 -0.17553674 0.23363173 0.2914075
000160 99 c8 73 be e2 47 04 3e 26 ed 9c be 89 f0 c2 ba
       -0.2380699 0.12918046 -0.3064968 -0.001487271
000170 3f 62 07 bc 5c 37 db 3b 64 d8 72 3e 99 59 8f 3e
       -0.00826317 0.006689949 0.23715359 0.27998045
000180 d3 13 5e 3d b2 19 8b bc 50 5d 64 be 9a 08 7c 3e
       0.054218125 -0.016980026 -0.22301221 0.24612656

fc2.bias f4 [10]
000000 65 a2 c3 bd 9b eb d4 3d ee b6 8f be 8d 51 16 be
       -0.09552459 0.10396501 -0.28069252 -0.14679547
000010 45 2d f6 3d 31 66 ed 3d 37 aa 12 3e cd 0f 39 be
       0.12020353 0.11591757 0.14322744 -0.18072434
000020 79 50 18 be 10 c9 80 3e
       -0.14874448 0.251534

state_value.weight f4 [1, 10]
000000 a4 72 af bd ac d1 06 3e de 8b d7 3d c6 15 f7 bc
       -0.08566788 0.13165921 0.105247244 -0.03016175
000010 19 3d 8a be ab 17 e0 3d 44 68 e9 bd d6 47 6a 3d
       -0.2699974 0.10942014 -0.1139684 0.057197414
000020 1d 7b 72 3e da d8 1a 3e
       0.23679776 0.15121785
