controllers/train_position/models/model_300_critic.pkl (torch, 2847 bytes, 5 tensors)

fc1.weight f4 [10, 3]
00000000: 32e7 f7be 4932 3d3e 9fa5 123e f587 b2bd
00000010: 9bd4 f4be ad89 4b3f 5404 fa3c 2a84 88be
00000020: 11ec 35be b815 84be 211d 13bf 2792 d8bd
00000030: 2df5 0dbf 0899 efbe 655f d4be 7713 0fbd
00000040: a4a9 ffbe 6bbf 613e c39e 39bc 7f47 ca3d
00000050: 4a0f 25bf 13cb 483e f5c1 413d be67 0d3d
00000060: 494f d33e a6b6 edbe 83b9 e63e 9b28 ccbe
00000070: 9b9d d4be 60b6 53be
-0.48418576 0.18476214 0.14320992 -0.08717338 -0.47818455 0.7950695 0.030519642 -0.26663333
-0.17765833 -0.2579782 -0.5746632 -0.10574751 -0.55452234 -0.4679644 -0.4147903 -0.034930672
-0.49934113 0.22045676 -0.011329356 0.09876918 -0.64476454 0.19608717 0.047304112 0.034522764
0.41271427 -0.46428412 0.4506341 -0.3987473 -0.41526493 -0.2067504

fc1.bias f4 [10]
00000000: 9ae7 ab3f 18de c53f 0240 a9be eeab dfbe
00000010: 08d4 fabc 5fbe b43f 4272 6d3f 4f38 b23f
00000020: 0188 07bf 195b 90be
1.3430054 1.5458403 -0.33056647 -0.4368586 -0.030618683 1.4120597 0.9275247 1.3923434
-0.529419 -0.28194502

fc2.weight f4 [10, 10]
00000000: 836c 663f 1c31 9a3f abb4 98be 4993 c5bc
00000010: 11da 323e 1c1c 8a3f 13ab d73e f4b5 063f
00000020: dba4 9fbe 7f6e 803d 3ae2 6f3d 972a 19bd
00000030: a033 b13d c236 ddbd 24b7 7fbd 0141 97bd
00000040: b4d9 58be 7b96 3ebd 7155 9ebd 8d09 bfbd
00000050: c08c 193e ee40 673e f069 eb3d b1cd 623e
00000060: 8705 9cbe ff4b 72bd d09e 96be e817 433d
00000070: 0f1c 033d c306 28bd 8fa3 a73f b50b 853f
00000080: 9ede 5abe ea48 b83d f905 0e3b 3366 523f
00000090: e9c6 a53e 6a77 d33e 79ab 87bd ec2f a13e
000000a0: 262d 1d3f 652b b43f b437 493e 2302 aebc
000000b0: 2fb8 bb3c 2141 a33f 6d9d 973e cad6 c03e
000000c0: e267 86be 17de e1bd 68f5 863f 352b 973f
000000d0: 4810 2a3e 4bd1 acbc cd11 903d 3866 873f
000000e0: 33cc ebbd 17f5 063c a056 213d abb6 223e
000000f0: 3dd0 4a3f 4aef 9c3f 1f7e ecbd 947e d6bd
00000100: daad bfbd a240 503f 5b0c 433d 8190 a43e
00000110: 5398 9ebc e7a4 0cbe c8c9 883f 1558 663f
00000120: 8c5f 0839 c009 923e 7ce3 39be 44c9 883f
00000130: cc68 023e 8bb2 b83e cadb 81be bcd7 4f3d
00000140: 37aa 82be 503c dabe 9009 9a3d 6e3d 653e
00000150: 6407 873e 656f 80be 41c5 a83e f559 a63e
00000160: 99c8 73be e247 043e 5c72 c4be 887a e9bd
00000170: 3f62 07bc 5c37 db3b 64d8 723e ef2c 053e
00000180: afc3 0fbd c6fe dfbd 505d 64be 9a08 7c3e
0.90009326 1.2046237 -0.2982534 -0.024118083 0.17465998 1.0789828 0.42122707 0.5262139
-0.31180462 0.062710755 0.058565356 -0.037394132 0.08652425 -0.1080146 -0.062430516 -0.073854454
-0.21176797 -0.046530228 -0.077311404 -0.093279935 0.14995098 0.22583362 0.11494815 0.22148778
-0.30472967 -0.059154507 -0.2941804 0.04763022 0.03200918 -0.041022073 1.3096789 1.0394198
-0.21373984 0.08998282 0.002167104 0.82187194 0.3237832 0.41302043 -0.06624503 0.31481874
0.61397016 1.4075743 0.19650155 -0.021241253 0.022914974 1.2754251 0.29612294 0.3766387
-0.2625113 -0.110286884 1.0543642 1.1810061 0.16607773 -0.021095892 0.07034645 1.057807
-0.11513557 0.008237145 0.039389253 0.15889995 0.79223996 1.2260525 -0.11547493 -0.104733616
-0.093593314 0.8134862 0.047619205 0.32141498 -0.019359743 -0.1373478 1.0686579 0.8997815
0.00013005565 0.28523064 -0.18153185 1.0686421 0.1273529 0.36073717 -0.25362998 0.05074285
-0.2552049 -0.4262414 0.07521355 0.22386715 0.26372826 -0.25084987 0.32962993 0.32490507
-0.2380699 0.12918046 -0.383685 -0.11400324 -0.00826317 0.006689949 0.23715359 0.13005422
-0.035098728 -0.10937266 -0.22301221 0.24612656

fc2.bias f4 [10]
00000000: c662 2e3f 5bb2 713d eeb6 8fbe d093 373f
00000010: b619 4a3f 8328 1e3f d5a7 703f a452 1f3f
00000020: db24 7fbe c245 203e
0.68119466 0.059007984 -0.28069252 0.7170992 0.7894548 0.61780566 0.9400609 0.62235475
-0.24916403 0.1565161

state_value.weight f4 [1, 10]
00000000: ed86 31bf 50e5 bd3d de8b d73d 6615 34bf
00000010: 5a1a 7ebf 45c2 13bf 16f1 79bf acd4 26bf
00000020: 12c8 ad3e c61d 773d
-0.69346505 0.092722535 0.105247244 -0.7034515 -0.9925896 -0.57718307 -0.9763349 -0.6516826
0.33941704 0.06033113
