controllers/train_angle/models/model_300_critic.pkl (torch, 2847 bytes, 5 tensors)

fc1.weight f4 [10, 3]
-0.01085186 0.058030903 0.39634538 0.004772648 0.37956268 0.24043229 -0.23418453 -0.37245134
0.37644416 0.44636032 0.0990377 -0.29870436 -0.0896394 0.44560382 0.014864381 -0.36858308
-0.13042992 0.21560836 -0.12917267 -0.30530468 0.005427141 -0.20999004 -0.110741176 0.24508047
-0.32659104 -0.25555438 -0.564254 -0.186245 -0.32079887 -0.3329068
00000000: 00cc 31bc d0b1 6d3d c8ed ca3e e063 9c3b
00000010: 0a56 c23e e233 763e 12ce 6fbe f1b1 bebe
00000020: 4abd c03e 5789 e43e 47d4 ca3d c7ef 98be
00000030: dd94 b7bd 2f26 e43e bc89 733c ecb6 bcbe
00000040: 6c8f 05be 70c8 5c3e d745 04be e550 9cbe
00000050: 29d6 b13b a107 57be 45cc e2bd 60f6 7a3e
00000060: f136 a7be 06d8 82be f372 10bf 02b7 3ebe
00000070: c03f a4be c372 aabe

fc1.bias f4 [10]
-0.27863184 1.0721099 -0.41405207 0.35928428 0.45359945 -0.12394127 1.9321806 1.8664157
-0.09020051 -0.3043915
00000000: d5a8 8ebe e63a 893f a2fe d3be 1cf4 b73e
00000010: 303e e83e ecd4 fdbd b251 f73f b6e6 ee3f
00000020: 0cbb b8bd 34d9 9bbe

fc2.weight f4 [10, 10]
-0.203165 -0.17313501 -0.07449934 -0.3127343 0.117186494 0.1920425 -0.10881878 -0.23338148
0.21120545 0.035833716 -0.10140604 0.40021056 0.15704682 0.30730617 -0.05597167 -0.30685288
1.3386935 1.649151 0.15770161 -0.06296787 0.12898016 0.06254152 0.27489516 0.10178895
-0.11265752 -0.2720827 1.4547279 1.9804441 0.18074715 -0.04562521 0.1325025 0.23820204
-0.19936648 0.30958438 0.20448743 0.06149444 1.3479171 1.9188902 -0.038706213 -0.10711254
0.14146468 0.1835468 0.028512895 -0.21087494 -0.21619745 0.0613575 0.22217827 -0.30525345
-0.052954108 -0.1333908 -0.2182308 0.09379257 -0.07783729 -0.25943962 0.011967433 0.17970785
2.0511014 2.0755575 -0.11154933 -0.29988897 -0.23605868 0.2713946 -0.041432172 0.086841516
0.16770063 0.2241573 1.3111303 1.961073 0.20101562 -0.0761535 -0.18300815 -0.39237583
-0.3144385 -0.11348441 -0.3029839 0.20165178 0.08513206 0.14863217 -0.032600045 -0.14581299
-0.29039243 0.39230368 0.22802714 0.20311052 0.38429227 0.0690442 1.3991182 1.9414089
-0.03782928 -0.31275362 0.0862256 -0.029397368 0.11789599 -0.03253731 0.06381643 -0.23793626
-0.17358682 -0.29631624 -0.15365833 -0.26588893
00000000: 7c0a 50be 4e4a 31be 1c93 98bd b61e a0be
00000010: 79ff ef3d caa6 443e 61dc debd 8efb 6ebe
00000020: 3e46 583e 60c6 123d f8ad cfbd 66e8 cc3e
00000030: e2d0 203e 3c57 9d3e 8d42 65bd d21b 9dbe
00000040: 4f5a ab3f 6117 d33f 887c 213e 4cf5 80bd
00000050: 6013 043e c515 803d 0fbf 8c3e ba76 d03d
00000060: fcb8 e6bd 6c4e 8bbe 8634 ba3f 317f fd3f
00000070: c815 393e 80e1 3abd bcae 073e 3ceb 733e
00000080: ba26 4cbe d881 9e3e 2765 513e 98e1 7b3d
00000090: 8c88 ac3f 329e f53f 688a 1ebd d25d dbbd
000000a0: 1edc 103e b1f3 3b3e e093 e93c 9aef 57be
000000b0: dd62 5dbe 0052 7b3d b382 633e 2e4a 9cbe
000000c0: 68e6 58bd 9997 08be e577 5fbe 5216 c03d
000000d0: 2869 9fbd 45d5 84be 0d13 443c 5605 383e
000000e0: 3f45 0340 efd5 0440 fa73 e4bd 0c8b 99be
000000f0: 5eb9 71be 3cf4 8a3e c8b4 29bd f7d9 b13d
00000100: b7b9 2b3e 7e89 653e 1ed3 a73f 7104 fb3f
00000110: 0ad7 4d3e 5ef6 9bbd 7d66 3bbe 7ce5 c8be
00000120: 15fe a0be 846a e8bd b520 9bbe ce7d 4e3e
00000130: b859 ae3d 0833 183e a087 05bd 0050 15be
00000140: 51ae 94be 07dc c83e f27f 693e 34fc 4f3e
00000150: f5c1 c43e 0c67 8d3d 4e16 b33f 1680 f83f
00000160: e0f2 1abd 3e21 a0be 0c97 b03d c0d2 f0bc
00000170: 7473 f13d d845 05bd 30b2 823d 90a5 73be
00000180: bec0 31be c3b6 97be 9c58 1dbe 9822 88be

fc2.bias f4 [10]
0.14716287 0.7186157 0.8038883 0.7766185 -0.06748115 0.7899895 0.6787315 0.10797527
0.57847303 -0.20021632
00000000: ddb1 163e 33f7 373f a0cb 4d3f 78d0 463f
00000010: 8f33 8abd c03c 4a3f 59c1 2d3f 2322 dd3d
00000020: cf16 143f 8205 4dbe

state_value.weight f4 [1, 10]
0.13338113 -0.38573185 -0.8030537 -0.6474311 0.1163217 -1.5658933 -0.74732655 0.2317274
-0.39470345 -0.2644792
00000000: 1095 083e a57e c5be ed94 4dbf 0bbe 25bf
00000010: 123a ee3d 316f c8bf cb50 3fbf f349 6d3e
00000020: 9216 cabe d169 87be
