controllers/train_angle/models/model_100_actor.pkl (torch, 2903 bytes, 6 tensors)

fc1.weight f4 [10, 3]
0.34640908 0.26795518 -0.20516352 -0.011969197 -0.0011548469 0.04604756 0.6065736 -0.38076806
0.48331386 0.13285929 0.43906337 0.0631644 0.59361386 -0.36513662 0.05829651 0.5784976
0.08068623 0.33667096 -0.2975965 0.54836386 0.55236614 -0.5276309 -0.5769409 -0.45379326
-0.17793638 -0.21480232 -0.3668089 0.25578064 -0.32830286 0.113867946
00000000: 885c b13e 6c31 893e 6316 52be 731a 44bc
00000010: 3b5e 97ba 5e9c 3c3d 6848 1b3f 08f4 c2be
00000020: ea74 f73e 440c 083e eacc e03e 565c 813d
00000030: 14f7 173f 30f3 babe 52c8 6e3d 6b18 143f
00000040: d23e a53d 2360 ac3e 925e 98be 9361 0c3f
00000050: de67 0d3f d212 07bf 66b2 13bf 9757 e8be
00000060: f434 36be 24f5 5bbe 60ce bbbe aef5 823e
00000070: 5017 a8be 9933 e93d

fc1.bias f4 [10]
0.57612115 0.17198221 0.30021256 0.24617627 0.45916483 0.5311421 0.1860861 0.36599642
0.31627014 0.18168429
00000000: ad7c 133f 1b1c 303e 76b5 993e a215 7c3e
00000010: a717 eb3e eef8 073f 5b8d 3e3e e263 bb3e
00000020: 29ee a13e 720b 3a3e

fc2.weight f4 [10, 10]
-0.15087114 -0.21303824 -0.033388913 -0.2123795 -0.09550351 -0.24312514 0.25291243 0.1401706
0.098661155 -0.056376934 0.23542295 0.11765673 0.27624404 0.11636883 -0.25344744 0.14486831
0.011066104 0.17557354 0.12263864 0.30911672 -0.20530045 -0.09048356 -0.25533733 -0.12825955
0.006534934 -0.1352383 -0.22279742 -0.061475128 0.23409715 -0.03401169 0.16823748 -0.20861895
0.17953098 -0.1116222 0.26019287 0.17731313 0.22579654 0.28447565 0.24229626 -0.17322733
-0.19700447 -0.28046426 0.17050695 0.23513672 0.06373978 -0.16270937 0.2791073 -0.2405526
0.10726136 -0.12557995 -0.1481628 0.17336296 -0.3119748 -0.18193603 0.26089808 0.24852179
-0.27999517 0.00053450465 -0.1499008 0.26875857 -0.21287945 0.34003624 0.32294613 -0.2520529
0.32808924 -0.23571818 0.31410655 0.2985685 -0.20211121 0.2212875 0.0036688922 -0.117925055
0.35043585 0.27052388 0.23984155 0.036968358 0.054444443 0.0069092833 0.20122771 0.068601534
-0.21732664 -0.22187024 0.22205374 0.15284538 -0.06469941 0.02198875 -0.24769726 0.100058556
-0.1894698 -0.10962288 0.3480826 -0.038311914 0.23991731 -0.23662172 0.22975542 0.14654936
-0.16958559 0.2695349 0.005454807 0.2538272
00000000: f77d 1abe b226 5abe d0c2 08bd 037a 59be
00000010: 5897 c3bd ccf5 78be bd7d 813e e288 0f3e
00000020: dc0e ca3d 80eb 66bd b712 713e 03f6 f03d
00000030: dc6f 8d3e c852 ee3d ddc3 81be 5c58 143e
00000040: 9b4e 353c 8dc9 333e f829 fb3d 8c44 9e3e
00000050: 483a 52be 724f b9bd 93bb 82be 7956 03be
00000060: 0023 d63b e97b 0abe 0225 64be 58cd 7bbd
00000070: 2ab7 6f3e d84f 0bbd 7246 2c3e 35a0 55be
00000080: f8d6 373e 2e9a e4bd 0038 853e 9391 353e
00000090: 3537 673e cba6 913e 831c 783e 8162 31be
000000a0: 8abb 49be 0399 8fbe 6099 2e3e aec7 703e
000000b0: 008a 823d 499d 26be 27e7 8e3e 6c53 76be
000000c0: d8ab db3d 0898 00be fdb7 17be 0f86 313e
000000d0: 29bb 9fbe 704d 3abe 6f94 853e 7f7c 7e3e
000000e0: 875b 8fbe 001e 0c3a 987f 19be b99a 893e
000000f0: 12fd 59be 3b19 ae3e 3259 a53e 140d 81be
00000100: 50fb a73e 1b60 71be 93d2 a03e f8dd 983e
00000110: 3ef6 4ebe 3199 623e cc71 703b b182 f1bd
00000120: 546c b33e 1b82 8a3e 0699 753e 226c 173d
00000130: 2301 5f3d 4567 e23b a30e 4e3e f67e 8c3d
00000140: e08a 5ebe f431 63be 0e62 633e 8083 1c3e
00000150: 2081 84bd c021 b43c 5aa4 7dbe 80eb cc3d
00000160: 5f04 42be f681 e0bd e237 b23e f4ec 1cbd
00000170: e2ac 753e f74c 72be 0145 6b3e 0911 163e
00000180: d8a7 2dbe 7a00 8a3e 3dbe b23b a4f5 813e

fc2.bias f4 [10]
0.10116586 -0.110180974 0.22523597 0.11828714 0.017980427 -0.21040688 -0.0077349986 -0.05277724
-0.27765688 -0.1493621
00000000: 0c30 cf3d 90a6 e1bd 42a4 663e 8740 f23d
00000010: b04b 933c e774 57be df75 fdbb f22c 58bd
00000020: 0b29 8ebe 61f2 18be

action_head.weight f4 [4, 10]
0.16918445 -0.020862272 -0.20246968 0.25248548 -0.15621594 -0.26283008 0.1490753 0.11143985
0.22227272 0.03317531 -0.07152638 -0.058113225 -0.1497173 -0.30992836 -0.08404787 0.029444225
-0.23344444 -0.34343588 0.16679162 -0.28526902 -0.085758805 0.2475247 0.3039697 -0.2864617
-0.30259863 -0.055840667 -0.2626083 0.13714705 0.03952214 -0.22071525 -0.10660125 0.2534292
-0.23842433 0.33898282 0.2042161 -0.2610741 -0.05596203 0.33932048 0.04126531 0.3448979
00000000: b03e 2d3e 5be7 aabc 3654 4fbe c745 813e
00000010: 12f7 1fbe aa91 86be 32a7 183e 933a e43d
00000020: 769b 633e d5e2 073d 6c7c 92bd 2208 6ebd
00000030: 7e4f 19be eeae 9ebe 4a21 acbd 0435 f13c
00000040: 0f0c 6fbe d4d6 afbe 6ccb 2a3e c80e 92be
00000050: 50a2 afbd 1d77 7d3e eba1 9b3e 1cab 92be
00000060: 35ee 9abe 2fb9 64bd 9874 86be 4770 0c3e
00000070: f8e1 213d 2e03 62be c251 dabd 79c1 813e
00000080: 8225 74be 288f ad3e 061e 513e 81ab 85be
00000090: 7138 65bd 6abb ad3e d005 293d 7596 b03e

action_head.bias f4 [4]
0.008707006 -0.33369505 0.23094758 0.21799484
00000000: d5a7 0e3c 14da aabe 867d 6c3e 0a3a 5f3e
