controllers/train_angle/models/model_400_actor.pkl (torch, 2903 bytes, 6 tensors)

fc1.weight f4 [10, 3]
00000000: 0d91 733e 36ad 293e 08ea 99be 931f ed3d
00000010: 8452 fa3d 0abb 263e 3d2b ec3e 5707 06bf
00000020: f622 b33e 5c97 d23d cf79 cd3e 193b d93c
00000030: ddcc 153f 10b0 b7be 4530 6c3d f730 153f
00000040: 29a6 c93d d2e3 b13e 3f8d bebe c117 f33e
00000050: 2c69 f53e d212 07bf 66b2 13bf 9757 e8be
00000060: f434 36be 24f5 5bbe 60ce bbbe f694 483e
00000070: 3887 c7be c2e5 663d
0.23785801 0.16569981 -0.30061364 0.11578288 0.1222277 0.16282287 0.46126738 -0.5235495
0.3498761 0.10282776 0.40131995 0.026517438 0.5851572 -0.35876513 0.05766322 0.5827784
0.09846146 0.34744126 -0.37217137 0.4747906 0.47931802 -0.5276309 -0.5769409 -0.45379326
-0.17793638 -0.21480232 -0.3668089 0.19588074 -0.3897035 0.056371458

fc1.bias f4 [10]
00000000: c608 023f 89b5 703e 80df 573e 1dfe 713e
00000010: 623e da3e 2863 033f 02f9 0c3e a3dd a93e
00000020: 6389 b03e f7aa ed3d
0.5079464 0.2350675 0.21081352 0.23632093 0.4262572 0.51323175 0.13766864 0.33176908
0.34479818 0.116048746

fc2.weight f4 [10, 10]
00000000: f77d 1abe b226 5abe d0c2 08bd 037a 59be
00000010: 5897 c3bd ccf5 78be bd7d 813e e288 0f3e
00000020: dc0e ca3d 80eb 66bd 64c0 0c3e e563 97b9
00000030: d2b8 3d3e 523b 103c b29e b1be c62c 283d
00000040: e050 a73c 1391 583e 939f 1e3e c60b 6e3e
00000050: 483a 52be 724f b9bd 93bb 82be 7956 03be
00000060: 0023 d63b e97b 0abe 0225 64be 58cd 7bbd
00000070: 2ab7 6f3e d84f 0bbd 437a 693d 1b72 91be
00000080: a44a a23d 8c2c 5fbe 9ff9 0e3e 74ad 6d3d
00000090: 4776 aa3d dfd7 663e bae9 3c3e d916 57be
000000a0: 8abb 49be 0399 8fbe 6099 2e3e aec7 703e
000000b0: 008a 823d 499d 26be 27e7 8e3e 6c53 76be
000000c0: d8ab db3d 0898 00be e58b 283d 8b31 943e
000000d0: 123f efbd 65ea 8c3b 51b6 e13e 28af df3e
000000e0: 46be a5be c976 88be 16c0 d4be 0b91 b83e
000000f0: 5cf4 66be 29aa a73e 1241 a13e afa2 84be
00000100: fb3a a23e c530 7cbe a793 953e f986 5f3e
00000110: 39bb 8fbe da26 563e 8d4d f0bd ad59 79be
00000120: 774f 6d3e b7c2 0a3e 0510 f33d e944 bfbd
00000130: d432 5b3d d2e4 9b39 f56a 463e d3ee 2fbd
00000140: e08a 5ebe f431 63be 0e62 633e 8083 1c3e
00000150: 2081 84bd c021 b43c 5aa4 7dbe 80eb cc3d
00000160: 5f04 42be f681 e0bd 8619 963e c781 c7bc
00000170: 2aed 2c3e f41f 88be d75a 393e bda8 d33d
00000180: 3768 68be b889 833e 61e1 fcbb 1328 503e
-0.15087114 -0.21303824 -0.033388913 -0.2123795 -0.09550351 -0.24312514 0.25291243 0.1401706
0.098661155 -0.056376934 0.13745266 -0.00028875392 0.18527535 0.008803206 -0.34691387 0.041058324
0.020424306 0.21149091 0.1549056 0.23246679 -0.20530045 -0.09048356 -0.25533733 -0.12825955
0.006534934 -0.1352383 -0.22279742 -0.061475128 0.23409715 -0.03401169 0.057001363 -0.28407368
0.07924393 -0.21794337 0.1396241 0.058026746 0.08323341 0.22543286 0.18448535 -0.2100481
-0.19700447 -0.28046426 0.17050695 0.23513672 0.06373978 -0.16270937 0.2791073 -0.2405526
0.10726136 -0.12557995 0.04114904 0.28944048 -0.116819516 0.004300403 0.4408441 0.4368832
-0.3237173 -0.26653126 -0.415528 0.3604816 -0.22554153 0.3274701 0.31494957 -0.25905368
0.31685624 -0.24627979 0.29214212 0.21828832 -0.28072527 0.20913258 -0.11733542 -0.24350615
0.23174845 0.1355084 0.1186829 -0.093393154 0.05351527 0.00029734388 0.19376738 -0.04295237
-0.21732664 -0.22187024 0.22205374 0.15284538 -0.06469941 0.02198875 -0.24769726 0.100058556
-0.1894698 -0.10962288 0.29316348 -0.024353875 0.16887346 -0.26586878 0.18101059 0.10334919
-0.22696005 0.2569101 -0.007717297 0.20327787

fc2.bias f4 [10]
00000000: 0c30 cf3d 76d3 2bbe 42a4 663e 22e8 283d
00000010: b04b 933c b48e cabd e4a6 04bd d5f2 03be
00000020: 0b29 8ebe ceba 3dbe
0.10116586 -0.16779885 0.22523597 0.041237004 0.017980427 -0.098905 -0.03238572 -0.12885602
-0.27765688 -0.18528292

action_head.weight f4 [4, 10]
00000000: b03e 2d3e 5086 6b3c 3654 4fbe e5f3 633e
00000010: 12f7 1fbe 0052 4dbe 7077 0d3e 5aa1 e53d
00000020: 769b 633e b4a2 133d 6c7c 92bd cc7c 953d
00000030: 7e4f 19be 81aa ddbd 4a21 acbd 4062 bb3e
00000040: 67a1 70be 4039 78be 6ccb 2a3e 6f65 cdbd
00000050: 50a2 afbd 3e0d 6f3e eba1 9b3e 1464 97be
00000060: 35ee 9abe aaed 26be ec0b 83be 0ff3 243e
00000070: f8e1 213d 4266 6dbe c251 dabd 8bf5 453e
00000080: 8225 74be 63dd 8b3e 061e 513e 8bcc a4be
00000090: 7a7c 49bd a58f 953e d005 293d 1f53 923e
0.16918445 0.014375284 -0.20246968 0.22261007 -0.15621594 -0.20050812 0.13815093 0.11212416
0.22227272 0.036043838 -0.07152638 0.07299194 -0.1497173 -0.10823537 -0.08404787 0.36598396
-0.2349907 -0.24240589 0.16679162 -0.100291125 -0.085758805 0.23344895 0.3039697 -0.2956854
-0.30259863 -0.16301599 -0.25595033 0.16108344 0.03952214 -0.2318354 -0.10660125 0.19331948
-0.23842433 0.27317342 0.2042161 -0.32187304 -0.049190976 0.29211155 0.04126531 0.2857904

action_head.bias f4 [4]
00000000: 966a f2bc 09c2 4bbe dbb1 373e d27e 603e
-0.02959184 -0.19898237 0.1793894 0.21923378
