controllers/train_angle/models/model_200_actor.pkl (torch, 2903 bytes, 6 tensors)

fc1.weight f4 [10, 3]
0.27369204 0.20472777 -0.26486143 0.09525958 0.09983284 0.1423939 0.4942791 -0.48788857
0.3823427 0.10397565 0.4022282 0.025608148 0.5916365 -0.35411575 0.065971896 0.58599466
0.100424275 0.35193568 -0.3356243 0.51054454 0.516366 -0.5276309 -0.5769409 -0.45379326
-0.17793638 -0.21480232 -0.3668089 0.26377696 -0.31611168 0.123004995
00000000: 5d21 8c3e 28a4 513e eb9b 87be 7417 c33d
00000010: 2975 cc3d b5cf 113e 2612 fd3e 88cc f9be
00000020: 6cc2 c33e 30f1 d43d dbf0 cd3e 2ec8 d13c
00000030: 7d75 173f a94e b5be 461c 873d bf03 163f
00000040: 3eab cd3d ea30 b43e f3d6 abbe 0cb3 023f
00000050: 9030 043f d212 07bf 66b2 13bf 9757 e8be
00000060: f434 36be 24f5 5bbe 60ce bbbe c60d 873e
00000070: 64d9 a1be 0bea fb3d

fc1.bias f4 [10]
0.5300606 0.22367622 0.23451404 0.22933389 0.44159654 0.519426 0.17129274 0.34610048
0.32792374 0.17165443
00000000: 0db2 073f 610b 653e 7324 703e 81d6 6a3e
00000010: f118 e23e 1af9 043f 5d67 2f3e 1534 b13e
00000020: 9fe5 a73e 2ec6 2f3e

fc2.weight f4 [10, 10]
-0.15087114 -0.21303824 -0.033388913 -0.2123795 -0.09550351 -0.24312514 0.25291243 0.1401706
0.098661155 -0.056376934 0.15721732 0.0101647675 0.20384292 0.025642417 -0.33296654 0.056967404
0.019629203 0.20848195 0.15177976 0.22851907 -0.20530045 -0.09048356 -0.25533733 -0.12825955
0.006534934 -0.1352383 -0.22279742 -0.061475128 0.23409715 -0.03401169 0.11608785 -0.22059192
0.12028043 -0.15858719 0.2039641 0.124067515 0.22498076 0.2550532 0.2149736 -0.22087885
-0.19700447 -0.28046426 0.17050695 0.23513672 0.06373978 -0.16270937 0.2791073 -0.2405526
0.10726136 -0.12557995 0.021481369 0.292681 -0.14235058 -0.011085316 0.42783618 0.42271927
-0.28409824 -0.21266784 -0.3602709 0.41075832 -0.21847479 0.33792993 0.31877798 -0.25454786
0.3234453 -0.2400128 0.3045967 0.2586174 -0.23804125 0.21516714 -0.110014744 -0.24277586
0.23923023 0.14105208 0.12425354 -0.08785408 0.053807814 0.0002973455 0.19376738 -0.046587583
-0.21732664 -0.22187024 0.22205374 0.15284538 -0.06469941 0.02198875 -0.24769726 0.100058556
-0.1894698 -0.10962288 0.29481846 -0.06279651 0.17955911 -0.2868881 0.17131716 0.09118897
-0.1590302 0.2593122 -0.0050510294 0.19885258
00000000: f77d 1abe b226 5abe d0c2 08bd 037a 59be
00000010: 5897 c3bd ccf5 78be bd7d 813e e288 0f3e
00000020: dc0e ca3d 80eb 66bd 94fd 203e 208a 263c
00000030: 33bc 503e 0c10 d23c 977a aabe a756 693d
00000040: 6ccd a03c 4b7c 553e 276c 1b3e e700 6a3e
00000050: 483a 52be 724f b9bd 93bb 82be 7956 03be
00000060: 0023 d63b e97b 0abe 0225 64be 58cd 7bbd
00000070: 2ab7 6f3e d84f 0bbd 77bf ed3d d9e2 61be
00000080: 9655 f63d ae64 22be f7db 503e 1c17 fe3d
00000090: 5b61 663e 5596 823e 0a22 5c3e 112e 62be
000000a0: 8abb 49be 0399 8fbe 6099 2e3e aec7 703e
000000b0: 008a 823d 499d 26be 27e7 8e3e 6c53 76be
000000c0: d8ab db3d 0898 00be b2f9 af3c 49da 953e
000000d0: 5ac4 11be 2f9f 35bc 580d db3e a96e d83e
000000e0: 5375 91be 99c5 59be 6d75 b8be ea4e d23e
000000f0: dbb7 5fbe 2705 ad3e de36 a33e 1954 82be
00000100: 9f9a a53e eac5 75be 19f4 9b3e 8069 843e
00000110: 16c1 73be c654 5c3e 694f e1bd 3c9a 78be
00000120: c5f8 743e f56f 103e a478 fe3d d7ec b3bd
00000130: 9565 5c3d 0ae5 9b39 f56a 463e 9fd2 3ebd
00000140: e08a 5ebe f431 63be 0e62 633e 8083 1c3e
00000150: 2081 84bd c021 b43c 5aa4 7dbe 80eb cc3d
00000160: 5f04 42be f681 e0bd 72f2 963e 759b 80bd
00000170: 58de 373e ffe2 92be c46d 2f3e 48c1 ba3d
00000180: d0d8 22be 92c4 843e 1b83 a5bb 03a0 4b3e

fc2.bias f4 [10]
0.10116586 -0.15664321 0.22523597 0.085052215 0.017980427 -0.11249737 -0.017141838 -0.12472121
-0.27765688 -0.18452655
00000000: 0c30 cf3d 1467 20be 42a4 663e db2f ae3d
00000010: b04b 933c 0565 e6bd 0a6d 8cbc d56d ffbd
00000020: 0b29 8ebe 87f4 3cbe

action_head.weight f4 [4, 10]
0.16918445 -0.0073806606 -0.20246968 0.2461826 -0.15621594 -0.16254869 0.1413581 0.11135423
0.22227272 0.039105136 -0.07152638 0.083237074 -0.1497173 -0.18846598 -0.08404787 0.33124352
-0.2351363 -0.25018066 0.16679162 -0.12588076 -0.085758805 0.2321938 0.3039697 -0.28068903
-0.30259863 -0.13499221 -0.25735444 0.16105889 0.03952214 -0.22677623 -0.10660125 0.20894022
-0.23842433 0.29836172 0.2042161 -0.39489758 -0.05125558 0.29526496 0.04126531 0.29600453
00000000: b03e 2d3e 78d9 f1bb 3654 4fbe 4b17 7c3e
00000010: 12f7 1fbe 2a73 26be 2ec0 103e b00d e43d
00000020: 769b 633e b52c 203d 6c7c 92bd 3378 aa3d
00000030: 7e4f 19be 3afd 40be 4a21 acbd c098 a93e
00000040: 92c7 70be ae17 80be 6ccb 2a3e e3e6 00be
00000050: 50a2 afbd 36c4 6d3e eba1 9b3e 79b6 8fbe
00000060: 35ee 9abe 663b 0abe f6c3 83be 9fec 243e
00000070: f8e1 213d 0738 68be c251 dabd 6df4 553e
00000080: 8225 74be dec2 983e 061e 513e 0430 cabe
00000090: 5ff1 51bd f82c 973e d005 293d e88d 973e

action_head.bias f4 [4]
0.007729812 -0.24525572 0.2018295 0.19551584
00000000: 5d4a fd3b 5124 7bbe 64ac 4e3e 4e35 483e
