controllers/train_angle/models/model_200_critic.pkl (torch, 2847 bytes, 5 tensors)

fc1.weight f4 [10, 3]
-0.01085186 0.058030903 0.39634538 0.065966584 0.44252715 0.2981365 -0.23418453 -0.37245134
0.37644416 0.51501656 0.17035513 -0.23385015 -0.010916124 0.53049517 0.08971925 -0.36858308
-0.13042992 0.21560836 -0.11051849 -0.28516552 0.02333731 -0.20999004 -0.110741176 0.24508047
-0.32659104 -0.25555438 -0.564254 -0.186245 -0.32079887 -0.3329068
00000000: 00cc 31bc d0b1 6d3d c8ed ca3e 7d19 873d
00000010: eb92 e23e 59a5 983e 12ce 6fbe f1b1 bebe
00000020: 4abd c03e 20d8 033f 9371 2e3e 6a76 6fbe
00000030: 8bd9 32bc 88ce 073f babe b73d ecb6 bcbe
00000040: 6c8f 05be 70c8 5c3e 8557 e2bd 3701 92be
00000050: e32d bf3c a107 57be 45cc e2bd 60f6 7a3e
00000060: f136 a7be 06d8 82be f372 10bf 02b7 3ebe
00000070: c03f a4be c372 aabe

fc1.bias f4 [10]
-0.27863184 1.0545545 -0.41405207 0.38017073 0.46274278 -0.12394127 1.5397007 1.5072979
-0.09020051 -0.3043915
00000000: d5a8 8ebe a4fb 863f a2fe d3be bda5 c23e
00000010: 9fec ec3e ecd4 fdbd ea14 c53f 23ef c03f
00000020: 0cbb b8bd 34d9 9bbe

fc2.weight f4 [10, 10]
-0.203165 -0.17313501 -0.07449934 -0.3127343 0.117186494 0.1920425 -0.10881878 -0.23338148
0.21120545 0.035833716 -0.10140604 0.43684548 0.15704682 0.3587906 -0.0064158477 -0.30685288
1.036502 1.3125827 0.15770161 -0.06296787 0.12898016 0.09208777 0.27489516 0.14617951
-0.069011725 -0.2720827 1.1017648 1.5933174 0.18074715 -0.04562521 0.1325025 0.26728213
-0.19936648 0.35249883 0.24583414 0.06149444 1.0726144 1.6047662 -0.038706213 -0.10711254
0.14146468 0.1835468 0.028512895 -0.21087494 -0.21619745 0.0613575 0.22217827 -0.30525345
-0.052954108 -0.1333908 -0.2182308 0.06827267 -0.07783729 -0.25226316 0.0034168495 0.17970785
1.5907757 1.5939775 -0.11154933 -0.29988897 -0.23605868 0.29959267 -0.041432172 0.12898882
0.20856312 0.2241573 1.0204868 1.6315961 0.20101562 -0.0761535 -0.18300815 -0.39237583
-0.3144385 -0.11348441 -0.3029839 0.20165178 0.08513206 0.14863217 -0.032600045 -0.14581299
-0.29039243 0.42836714 0.22802714 0.25394908 0.43322545 0.0690442 1.0983217 1.6065117
-0.03782928 -0.31275362 0.0862256 -0.029397368 0.11789599 -0.03253731 0.06381643 -0.23793626
-0.17358682 -0.29631624 -0.15365833 -0.26588893
00000000: 7c0a 50be 4e4a 31be 1c93 98bd b61e a0be
00000010: 79ff ef3d caa6 443e 61dc debd 8efb 6ebe
00000020: 3e46 583e 60c6 123d f8ad cfbd 36aa df3e
00000030: e2d0 203e 67b3 b73e 083c d2bb d21b 9dbe
00000040: 19ac 843f b602 a83f 887c 213e 4cf5 80bd
00000050: 6013 043e 8398 bc3d 0fbf 8c3e 15b0 153e
00000060: 0556 8dbd 6c4e 8bbe a106 8d3f d3f1 cb3f
00000070: c815 393e 80e1 3abd bcae 073e 34d9 883e
00000080: ba26 4cbe ba7a b43e f2bb 7b3e 98e1 7b3d
00000090: 6e4b 893f fb68 cd3f 688a 1ebd d25d dbbd
000000a0: 1edc 103e b1f3 3b3e e093 e93c 9aef 57be
000000b0: dd62 5dbe 0052 7b3d b382 633e 2e4a 9cbe
000000c0: 68e6 58bd 9997 08be e577 5fbe 8bd2 8b3d
000000d0: 2869 9fbd a328 81be 39ed 5f3b 5605 383e
000000e0: 8a9e cb3f 7407 cc3f fa73 e4bd 0c8b 99be
000000f0: 5eb9 71be 3664 993e c8b4 29bd a515 043e
00000100: 9291 553e 7e89 653e 509f 823f 24d8 d03f
00000110: 0ad7 4d3e 5ef6 9bbd 7d66 3bbe 7ce5 c8be
00000120: 15fe a0be 846a e8bd b520 9bbe ce7d 4e3e
00000130: b859 ae3d 0833 183e a087 05bd 0050 15be
00000140: 51ae 94be f052 db3e f27f 693e 9d05 823e
00000150: bacf dd3e 0c67 8d3d ce95 8c3f 2da2 cd3f
00000160: e0f2 1abd 3e21 a0be 0c97 b03d c0d2 f0bc
00000170: 7473 f13d d845 05bd 30b2 823d 90a5 73be
00000180: bec0 31be c3b6 97be 9c58 1dbe 9822 88be

fc2.bias f4 [10]
0.14716287 0.68182725 0.75563824 0.7403998 -0.06748115 0.6986484 0.6394167 0.10797527
0.5413864 -0.20021632
00000000: ddb1 163e 3b8c 2e3f 8271 413f d78a 3d3f
00000010: 8f33 8abd 9fda 323f d0b0 233f 2322 dd3d
00000020: 4d98 0a3f 8205 4dbe

state_value.weight f4 [1, 10]
0.13338113 -0.34805194 -0.68878394 -0.6033675 0.1163217 -1.2020973 -0.68372774 0.2317274
-0.35840026 -0.2644792
00000000: 1095 083e dd33 b2be 2554 30bf 4b76 1abf
00000010: 123a ee3d 53de 99bf c808 2fbf f349 6d3e
00000020: 3d80 b7be d169 87be
